main/stgnn_model.pth (torch, 23536 bytes, 4 tensors)

conv1.bias f4 [16]
-0.15551019 0.48427933 0.5640371 0.49062282 -0.13866557 -0.13603488 0.46347934 0.5186975
0.5056908 0.54224855 0.5182323 0.5077342 0.5047826 0.2775927 -0.14389631 -0.11237868
00000000: 103e 1fbe 76f3 f73e bc64 103f ea32 fb3e
00000010: 59fe 0dbe ba4c 0bbe 2a4d ed3e 5cc9 043f
00000020: f474 013f cdd0 0a3f dfaa 043f defa 013f
00000030: 6f39 013f a120 8e3e 8e59 13be cb26 e6bd

conv1.lin.weight f4 [16, 329]
-0.026515933 -0.046348486 -0.024048476 -0.057382327 -0.042745616 0.13028564 -0.11906811 -0.044874094
0.016041487 0.06455608 0.0077962577 0.037778303 -0.032338932 0.036710292 0.03384921 0.03638862
-0.08107569 -0.1169848 -0.04715328 0.0896167 -0.110203 0.0039696544 -0.061350197 -0.016470678
0.07703069 0.10080734 -0.03875985 0.12063153 0.13037767 0.11707471 0.007269025 -0.053023115
-0.0199207 0.11306329 -0.06915651 -0.07809733 -0.006172538 0.112685785 0.025444686 -0.116353355
-0.07997338 0.023081645 0.11409591 0.12016134 0.114314064 0.060595274 0.118912145 -0.13176316
-0.038195252 -0.043140195 0.104064435 0.12450965 0.0026075393 -0.11617076 0.028928876 -0.042425387
0.11081639 0.12490879 -0.01616624 0.09795427 -0.02573666 -0.04414133 -0.063655615 -0.08130938
-0.07928108 -0.0094532 -0.08788119 0.002217412 9.447336e-06 0.08592667 -0.121722594 0.109109044
0.08089951 0.05357887 0.09711173 0.058879092 0.123104736 -0.014573894 -0.12691398 0.06218715
-0.029529586 -0.083773166 -0.091951445 0.00093893707 0.0478826 0.07239893 -0.055590436 0.099403396
-0.1032836 0.095552966 -0.055780552 0.0877769 -0.0024534613 -0.07058735 0.11374813 0.020645633
0.014258131 -0.040849544 0.018324047 -0.04750599 -0.10200568 0.12173511 -0.12848237 -0.06154143
-0.11663695 -0.10254459 -0.053198807 -0.09538967 -0.089043826 0.07045387 0.10987471 0.109847516
-0.029736012 -0.046580017 0.118291125 -0.12256927 -0.040904664 0.13095157 -0.10032025 0.023500279
-0.018333614 -0.02674298 0.05287604 0.09305324 0.11231403 -0.039592363 0.07218553 0.11290757
-0.10722177 0.1164981 -0.0034226775 -0.067621954 -0.052246675 -0.12614885 0.04447645 0.087238744
0.096979305 -0.009924531 -0.08686301 -0.016022302 0.056776047 -0.028754562 -0.05624699 -0.06466482
0.07533525 0.103000954 0.12474628 0.045450225 -0.06219089 0.04274133 0.0018842369 0.1136729
0.098686054 -0.06565457 0.017703474 -0.052060068 0.098649964 -0.053835288 0.06115657 0.10955845
-0.028707102 0.056252852 0.07835595 0.0047275126 0.1135418 -0.06597661 0.021901608 0.013355672
0.09580286 0.11031884 0.03816028 0.13121568 0.10536149 -0.016131707 -0.08499757 -0.05431565
0.03672053 0.021897346 -0.090896964 0.060846522 -0.00796672 -0.025654249 -0.00021123886 -0.017826274
0.01716882 0.0036176145 -0.024877355 -0.12149027 -0.0057660043 -0.08564169 -0.03356255 -0.0072814897
0.1026728 0.071365654 -0.0690784 -0.123199366 0.024323478 -0.110099375 -0.099759 0.050865874
0.09263979 -0.08835177 -0.037335567 0.036526278 0.12604682 0.013668999 0.004146144 0.101247564
-0.042780958 0.09101483 0.12103431 0.02367121 0.11277972 -0.017406806 0.002865687 0.07673372
0.12116487 -0.10301221 -0.08074552 0.09390673 0.050256684 -0.10748151 0.11845176 -0.12717117
0.11313078 -0.11045337 -0.055986986 0.084318176 -0.023939848 0.045933455 0.120116964 -0.06655594
-0.049480923 0.06405966 -0.10181906 -0.03506116 0.08810224 0.043109193 -0.13079432 -0.017873779
-0.08834483 0.12789126 -0.12505722 0.076228514 0.056231573 0.058827147 0.04440011 0.011202797
0.05144222 0.0010544509 -0.0390535 -0.096149996 0.025879249 -0.050528906 -0.10800876 0.024914071
00000000: f137 d9bc e9d7 3dbd 4f01 c5bc bb09 6bbd
00000010: 0716 2fbd 9969 053e fbd9 f3bd e6cd 37bd
00000020: 7069 833c fa35 843d c077 ff3b 6cbd 1a3d
00000030: d475 04bd 885d 163d 78a5 0a3d 3c0c 153d
00000040: 030b a6bd ba95 efbd cc23 41bd f688 b73d
00000050: 1cb2 e1bd e013 823b 584a 7bbd 84ed 86bc
00000060: 44c2 9d3d 1474 ce3d a6c2 1ebd aa0d f73d
00000070: b981 053e dec4 ef3d 0031 ee3b c42e 59bd
00000080: bc30 a3bc ba8d e73d eea1 8dbd 7ef1 9fbd
00000090: 0043 cabb cec7 e63d 6071 d03c ab4a eebd
000000a0: 15c9 a3bd b815 bd3c 1eab e93d 2617 f63d
000000b0: 7e1d ea3d c032 783d 3688 f33d ecec 06be
000000c0: a072 1cbd c6b3 30bd bc1f d53d eafe fe3d
000000d0: 40e3 2a3b efea edbd 40fc ec3c 3ec6 2dbd
000000e0: b4f3 e23d 2ed0 ff3d 106f 84bc 409c c83d
000000f0: b0d5 d2bc 8acd 34bd e05d 82bd 8885 a6bd
00000100: 1e5e a2bd 98e1 1abc 0efb b3bd 0052 113b
00000110: 0080 1e37 52fa af3d b249 f9bd 9074 df3d
00000120: a4ae a53d 8475 5b3d 84e2 c63d 342b 713d
00000130: 561e fc3d 58c7 6ebc bdf5 01be f4b7 7e3d
00000140: 08e8 f1bc 4491 abbd 0a51 bcbd 0023 763a
00000150: 8c20 443d e445 943d ccb2 63bd 0294 cb3d
00000160: 5a86 d3bd 46b1 c33d 267a 64bd 60c4 b33d
00000170: 40ca 20bb 1a90 90bd c8f4 e83d 0821 a93c
00000180: f09a 693c da51 27bd 501c 963c a495 42bd
00000190: 5be8 d0bd 4250 f93d e290 03be de12 7cbd
000001a0: 5adf eebd e602 d2bd fee6 59bd a95b c3bd
000001b0: 9c5c b6bd 1e4a 903d fe05 e13d bcf7 e03d
000001c0: f098 f3bc b0ca 3ebd 9e42 f23d 9905 fbbd
000001d0: a68b 27bd 2b18 063e b474 cdbd a883 c03c
000001e0: 6030 96bc 1814 dbbc 8c94 583d b292 be3d
000001f0: e604 e63d 9a2b 22bd 02d6 933d 163c e73d
00000200: 1697 dbbd 8e96 ee3d 004f 60bb 617d 8abd
00000210: 9c00 56bd 2a2d 01be f02c 363d 3aaa b23d
00000220: 169d c63d 809a 22bc 3ce5 b1bd 3441 83bc
00000230: 008e 683d b08e ebbc 3e63 66bd fd6e 84bd
00000240: 5e49 9a3d 2af2 d23d fa7a ff3d 042a 3a3d
00000250: e0bb 7ebd 8811 2f3d 80f8 f63a 56cd e83d
00000260: ea1b ca3d e775 86bd e006 913c f03c 55bd
00000270: fe08 ca3d 6482 5cbd 507f 7a3d 2e60 e03d
00000280: 282b ebbc 6469 663d 1679 a03d 40e9 9a3b
00000290: 9a88 e83d bf1e 87bd 006b b33c c0d1 5a3c
000002a0: 4a34 c43d d8ee e13d f44d 1c3d 675d 063e
000002b0: c4c7 d73d a426 84bc 3513 aebd 167a 5ebd
000002c0: 4468 163d 1062 b33c 3028 babd 343a 793d
000002d0: d886 02bc dc28 d2bc 0080 5db9 6808 92bc
000002e0: a0a5 8c3c 8015 6d3b 98cb cbbc e4cf f8bd
000002f0: c0f0 bcbb e964 afbd e278 09bd 9099 eebb
00000300: 1e46 d23d 2828 923d fa78 8dbd f34f fcbd
00000310: 0842 c73c c87b e1bd 724e ccbd bc58 503d
00000320: eeb9 bd3d c6f1 b4bd 2eed 18bd 949c 153d
00000330: 6b12 013e f0f3 5f3c 60dc 873b e25a cf3d
00000340: 163b 2fbd fc65 ba3d d6e0 f73d 20ea c13c
00000350: 0ef9 e63d b898 8ebc 40ce 3b3b 9226 9d3d
00000360: 4a25 f83d 11f8 d2bd e85d a5bd 2c52 c03d
00000370: f4d9 4d3d 441f dcbd d696 f23d 2939 02be
00000380: 1cb1 e73d 6035 e2bd 9c52 65bd 02af ac3d
00000390: 801d c4bc b824 3c3d e2ff f53d 7b4e 88bd
000003a0: 82ac 4abd b631 833d 8386 d0bd 4a9c 0fbd
000003b0: f26e b43d 4493 303d f2ee 05be 086c 92bc
000003c0: 22ee b4bd edf5 023e 000f 00be b21d 9c3d
000003d0: 1453 663d bcf4 703d e4dc 353d f08b 373c
000003e0: 14b5 523d 8035 8a3a 90f6 1fbd 4aea c4bd
000003f0: b800 d43c 66f7 4ebd b233 ddbd 9818 cc3c

conv2.bias f4 [3]
0.4204056 0.3703454 0.27969
00000000: 673f d73e ea9d bd3e 8733 8f3e

conv2.lin.weight f4 [3, 16]
-0.268492 0.99368227 0.5174657 1.0335053 -0.08647402 0.082530126 0.5409665 1.016336
0.7571788 0.6510488 0.8147274 1.055145 0.97247773 0.40812004 -0.43287638 0.03298677
0.51604474 0.880913 1.0164688 0.54156685 0.5291496 -0.34327546 0.6358191 0.21092065
0.8487841 0.45342737 0.37900513 0.29984382 0.5221811 0.42734525 -0.17248848 0.2255568
0.116733395 0.038988695 -0.19940235 0.25582054 -0.04127927 -0.007106927 -0.38739213 0.42956823
0.67205286 0.30095744 0.3309005 -0.05995399 0.37090275 -0.089316845 0.23760906 0.35305232
00000000: c977 89be f661 7e3f a278 043f e749 843f
00000010: 4a19 b1bd 8e05 a93d c87c 0a3f 4c17 823f
00000020: 78d6 413f 22ab 263f fa91 503f fe0e 873f
00000030: 4df4 783f 1cf5 d03e f9a1 ddbe 231d 073d
00000040: 821b 043f 8483 613f a61b 823f 20a4 0a3f
00000050: 5976 073f cdc1 afbe 0ac5 223f 95fb 573e
00000060: ea49 593f a227 e83e f60c c23e 2185 993e
00000070: a9ad 053f ffcc da3e d2a0 30be 5df8 663e
00000080: eb11 ef3d 9cb2 1f3d 2130 4cbe e9fa 823e
00000090: 7414 29bd 3ae1 e8bb 4358 c6be 5ef0 db3e
000000a0: a80b 2c3f 1817 9a3e ca6b a93e 5192 75bd
000000b0: f7e6 bd3e c0eb b6bd ca4f 733e 46c3 b43e
