der/cnn_model.pth (torch, 28440 bytes, 8 tensors)

conv1.weight f4 [16, 324, 1]
-0.04892918 -0.019805841 -0.014609687 -0.026019957 0.0008050725 0.029435579 -0.035545073 0.053631853
-0.053752165 -0.00066431984 0.051610474 -0.03547392 0.02648722 0.01084495 -0.01546051 -0.015255135
0.015770163 -0.03650807 0.04546014 -0.012105949 -0.017408509 0.05521049 0.055000376 0.009147558
-0.05539608 -0.035265915 -0.043658588 -0.029746765 -0.01827532 -0.034004517 0.053446706 0.0060568713
0.041883137 -0.03836835 0.040807124 -0.008254912 -0.023298543 -0.03904376 0.03232583 -0.01953493
0.010165472 -0.03997334 -0.02776658 -0.048657674 0.0069183894 -0.007237356 -0.039338455 -0.003110554
0.051574115 0.041676614 -0.023284998 0.024179209 0.04656637 -0.023761231 -0.0074565075 0.0018314794
0.03169662 0.026045982 -0.012158368 -0.031656895 -0.025198963 -0.054280214 0.049272824 0.024045873
-0.04046956 -0.025108542 -0.05388368 -0.04594251 -0.02175863 0.008277845 -0.016005114 -0.04526066
0.02796312 -0.021529928 -0.023856923 -0.031294666 -0.04350876 -0.046723567 0.033492293 0.0006277971
0.017218988 0.0436514 -0.027150149 0.017175402 -0.04340495 -0.041312 0.05371901 -0.020814545
0.016474303 -0.028061543 -0.034430776 -0.05506586 0.037592124 0.0271688 -0.03538364 0.039820176
-0.040004693 -0.032031044 0.05267412 -0.054977767 0.05305178 0.019192342 -0.027215859 0.0071528964
0.032113757 0.010513898 -0.004889097 -0.0510407 0.027861226 0.029401537 0.05061565 0.04839653
0.023052875 -0.0053966306 -0.04586406 0.0262868 0.054061215 0.0292756 -0.043842375 0.048765447
0.03564476 0.021520685 -0.03132573 -0.003616169 0.043375883 0.017506149 -0.013595071 0.048113603
-0.013202675 0.05087998 0.049235824 0.0035463981 0.05192465 -0.034822073 -0.053461123 -0.045965247
0.049090143 -0.044973023 0.032497887 0.012540843 -0.047257587 -0.030124903 0.022694077 0.0096729435
-0.020905063 0.018773582 -0.015427366 0.03634532 0.006983351 -0.038047627 0.0153343715 0.021767203
-0.035181846 -0.042311218 -0.052990425 0.039350245 0.014006238 -0.0060039833 -0.026316557 0.047934074
0.009816367 0.035230804 0.04748268 -0.052914314 -0.0058072656 -0.015828922 -0.02100347 -0.03510263
-0.04691243 0.014415953 -0.00039021298 0.021722186 -0.019888777 0.0068274327 0.0061382838 0.014279317
-0.037161462 0.049019646 -0.043940518 0.022293162 0.028935637 0.003721185 0.029046487 -0.041918233
0.006436363 -0.053308237 0.0013012737 0.00055548176 0.041847136 0.0061790496 -0.021762352 0.012049641
0.002271846 -0.047560774 -0.0361729 -0.043264285 -0.017705832 0.022439789 -0.013405461 0.051612895
0.021113377 -0.01897107 0.025709081 -0.03744559 0.0075499304 -0.03739035 0.011815611 -0.052045364
-0.008706026 -0.051819418 -0.008177731 -0.04905006 -0.015394136 0.008574549 -0.054612625 -0.03562939
0.036511037 -0.015684247 0.050539915 0.047454122 0.025185678 0.021920878 -0.028263291 0.051758405
0.04149298 0.04115719 -0.03363443 0.052045103 -0.020868592 -0.007423356 0.049894106 0.038117904
-0.030589389 -0.0012121387 -0.0029599406 0.047948632 0.008383635 0.03602835 -0.043642096 0.04734469
-0.050132737 -0.012988806 0.022329558 -0.0056659654 0.024805542 0.033234593 -0.00644223 0.003952246
0.028275136 0.039595682 0.0049446747 0.02784459 -0.0017005391 -0.021863502 -0.018731218 0.0101819
00000000: f769 48bd dc3f a2bc 785d 6fbc ce27 d5bc
00000010: 800b 533a e222 f13c b697 11bd 13ad 5b3d
00000020: 3b2b 5cbd c025 2eba 8165 533d 1a4d 11bd
00000030: bafb d83c 04af 313c 144e 7dbc acf0 79bc
00000040: 6e30 813c 7c89 15bd 6934 3a3d 0858 46bc
00000050: 4a9c 8ebc 6524 623d 1348 613d a4df 153c
00000060: 00e7 62bd fe72 10bd 59d3 32bd 7daf f3bc
00000070: 20b6 95bc 5248 0bbd efea 5a3d b878 c63b
00000080: a78d 2b3d 2228 1dbd 5f25 273d 9c3f 07bc
00000090: 96dc bebc 5aec 1fbd 1768 043d b807 a0bc
000000a0: 148d 263c 16bb 23bd bd76 e3bc 454d 47bd
000000b0: a8b3 e23b 5827 edbb 5c21 21bd 70da 4bbb
000000c0: 613f 533d 19b5 2a3d 2ec0 bebc 7a13 c63c
000000d0: 61bc 3e3d eaa6 c2bc b855 f4bb 400e f03a
000000e0: 51d4 013d 625e d53c e433 47bc a9aa 01bd
000000f0: 0e6e cebc ee54 5ebd 4dd2 493d dafb c43c
00000100: 69c3 25bd 6eb0 cdbc 22b5 5cbd 372e 3cbd
00000110: 283f b2bc cc9f 073c 281d 83bc 3e63 39bd
00000120: ea12 e53c 885f b0bc 986f c3bc d62e 00bd
00000130: 3e36 32bd 3661 3fbd 372f 093d c092 243a
00000140: d60e 8d3c cfcb 323d fd69 debc 6eb3 8c3c
00000150: 64c9 31bd c636 29bd 7708 5c3d 4483 aabc
00000160: 1ef5 863c 52e1 e5bc 4907 0dbd bd8c 61bd
00000170: 33fa 193d 1a91 de3c 70ee 10bd 7b1a 233d
00000180: f6db 23bd fc32 03bd d1c0 573d 5e30 61bd
00000190: d34c 593d 4239 9d3c cbf3 debc d862 ea3b
000001a0: b789 033d 7c42 2c3c b834 a0bb 0e10 51bd
000001b0: 3a3d e43c 7edb f03c 5b52 4f3d 713b 463d
000001c0: 62d9 bc3c 38d6 b0bb f4db 3bbd 6a57 d73c
000001d0: 4b6f 5d3d 62d3 ef3c 1094 33bd 47be 473d
000001e0: 3d00 123d 264c b03c 694f 00bd 40fd 6cbb
000001f0: e9aa 313d 0e69 8f3c dcbd 5ebc c512 453d
00000200: 0850 58bc 8767 503d 81ab 493d b06a 683b
00000210: f1ae 543d 97a1 0ebd 0dfa 5abd 0e46 3cbd
00000220: bf12 493d a235 38bd 811c 053d 1c78 4d3c
00000230: 2c91 41bd 80c8 f6bc eee8 b93c 447b 1e3c
00000240: 1841 abbc 0ecb 993c 10c3 7cbc d5de 143d
00000250: 98d4 e43b d4d7 1bbd 043d 7b3c 2251 b23c
00000260: d71a 10bd 874e 2dbd 7d0c 59bd b92d 213d
00000270: 6c7a 653c 10bd c4bb d295 d7bc 8556 443d
00000280: d4d4 203c 2d4e 103d 337d 423d aebc 58bd
00000290: e04a bebb a8ab 81bc 780f acbc c6c7 0fbd
000002a0: 4027 40bd e430 6c3c 8095 ccb9 baf2 b13c
000002b0: caed a2bc a8b8 df3b a823 c93b ccf3 693c
000002c0: 9e36 18bd d3c8 483d f9fa 33bd 26a0 b63c
000002d0: 6e0a ed3c 20df 733b e6f2 ed3c 74b2 2bbd
000002e0: 20e8 d23b bd59 5abd 808f aa3a c09d 113a
000002f0: e767 2b3d a079 ca3b f646 b2bc dc6b 453c
00000300: 40e3 143b 16cf 42bd 092a 14bd e435 31bd
00000310: d20b 91bc a6d3 b73c 94a2 5bbc 0b68 533d
00000320: f6f5 ac3c 3869 9bbc da9b d23c 8c60 19bd
00000330: 6865 f73b a026 19bd 4496 413c 852d 55bd
00000340: b8a3 0ebc 9940 54bd e4fb 05bc b7e8 48bd
00000350: b037 7cbc 447c 0c3c 7db1 5fbd 20f0 11bd
00000360: 998c 153d 407c 80bc f102 4f3d 415f 423d
00000370: 3252 ce3c 6a93 b33c 6b88 e7bc 9f00 543d
00000380: 8bf4 293d 7194 283d 42c4 09bd 3f2d 553d
00000390: 9cf4 aabc a03f f3bb c35d 4c3d 8521 1c3d
000003a0: 9996 fabc a0e0 9eba 90fb 41bb c965 443d
000003b0: 845b 093c 7792 133d 0ec2 32bd 81ec 413d
000003c0: fc57 4dbd 00cf 54bc 7aec b63c 90a9 b9bb
000003d0: fe34 cb3c ff20 083d 5819 d3bb d881 813b
000003e0: 42a1 e73c 152f 223d f006 a23b 561a e43c
000003f0: a0e4 deba 161b b3bc 3672 99bc fcd1 263c

conv1.bias f4 [16]
-0.036385644 0.439589 0.46695814 0.043611296 0.42298755 -0.014233216 -0.063119575 -0.016594777
-0.017886471 0.04394459 -0.032782257 0.7546848 0.4298835 -0.04357045 -0.016235262 -0.04768502
00000000: 1d09 15bd cf11 e13e 2315 ef3e c2a1 323d
00000010: d391 d83e 6f32 69bc d644 81bd c5f1 87bc
00000020: a686 92bc 3eff 333d b046 06bd 0633 413f
00000030: b119 dc3e ee76 32bd d0ff 84bc 5e51 43bd

conv2.weight f4 [32, 16, 1]
0.13950841 0.1503988 0.25921825 0.47065073 0.59866136 -0.16376777 -0.2279303 0.19057086
0.117187746 0.45746595 0.19868395 0.75220907 0.50679195 -0.20399167 -0.019726852 0.02709058
-0.18337469 0.41550756 0.30626193 0.73554486 0.4109701 -0.00061130285 0.1746796 0.07995594
-0.068764545 0.42557138 -0.2318787 0.35343668 0.43772218 0.10784714 -0.1267628 0.095217675
0.066464424 0.3303388 0.5215326 0.40137273 0.6065865 0.003921648 -0.15401646 0.15211093
-0.1357087 0.5273687 0.014094561 0.4671562 0.26441756 0.18439789 0.0117711555 0.18604073
-0.15053155 0.38474467 0.43643847 0.38961846 0.38700178 -0.10301977 -0.19130115 -0.19308102
-0.19958411 0.7097186 -0.24335957 0.800043 0.38448048 0.2133541 0.10845139 0.15195763
-0.19577026 0.25093693 0.51542145 0.51140785 0.18976778 -0.21025291 -0.18402159 -0.13896015
-0.19825812 0.6202492 0.07456136 0.74825114 0.18183382 0.13071036 0.22584122 0.0376738
0.10692109 0.22095615 0.27234343 0.63204116 0.2812719 -0.28256994 -0.20691442 -0.14918402
0.055924203 0.54895157 -0.19141838 0.40792236 0.2967816 -0.17063096 -0.20548938 -0.20398173
-0.21578199 0.3342286 0.39183474 0.6318909 0.41272742 -0.20689747 -0.23380995 0.20614576
-0.23626438 0.55630624 -0.0009714365 0.4717134 0.32715768 0.03477043 0.052166104 -0.19041708
-0.16302961 0.35782498 0.23937832 0.19892149 0.4643168 0.003273757 -0.13162024 -0.1971419
0.08349383 0.04961134 0.16912895 0.43927377 0.3205035 0.22297901 -0.22346093 0.2375468
0.016940147 0.3931271 0.47010988 0.70045894 0.29757178 -0.24583331 -0.23730546 0.15998715
-0.15810132 0.52305895 -0.11654958 0.68793017 0.3033669 -0.069563985 0.07925679 -0.20656261
-0.20022188 0.5731324 0.18898042 0.44253713 0.1970736 -0.14926846 -0.118946575 -0.18480337
0.22635528 0.6867252 -0.095992446 0.69311094 0.3667465 -0.21553114 -0.18475366 -0.1489088
-0.059390485 -0.053529322 0.20268452 -0.03856498 -0.2129561 -0.025657475 -0.04299605 -0.20556435
0.010905355 0.11203346 -0.18405542 -0.08095342 -0.16165146 -0.09378272 0.14453688 0.13506642
0.15089507 0.14783943 0.5829011 0.34035802 0.342706 -0.20099647 0.13250795 -0.19025807
0.03080952 0.3756928 0.19916633 0.5386677 0.62660635 0.10904246 0.020144785 -0.14452165
-0.1860165 0.5178526 0.34569243 0.73153776 0.42301273 0.14570898 -0.24592593 -0.09815788
-0.23075736 0.5334331 -0.12849689 0.7032271 0.26167375 -0.005611837 0.071065 -0.05576253
-0.08138066 0.49412128 0.35299417 0.3710467 0.5729702 0.13351472 -0.14715134 -0.018257625
0.012140306 0.4400515 0.17064661 0.45283753 0.31720033 0.12876348 0.06250758 -0.15584981
-0.23159999 -0.19713303 -0.20443556 -0.19824547 0.09811622 0.10513675 0.14743924 0.085510045
0.062121272 -0.06631842 0.06218949 0.062601775 -0.013011903 0.10611817 -0.059102893 0.049141258
0.11782246 0.039606504 0.31837955 0.41203278 0.44205907 -0.24223979 0.09651826 0.1333674
0.065048814 0.47880304 -0.12843499 0.61838704 0.51207715 -0.06269021 -0.05866345 0.036455095
00000000: 4bdb 0e3e 2502 1a3e 41b8 843e 22f9 f03e
00000010: df41 193f bdb2 27be 9066 69be 0225 433e
00000020: 2100 f03d fa38 ea3e ce73 4b3e c690 403f
00000030: 1ebd 013f 31e3 50be 359a a1bc 10ed dd3c
00000040: 93c6 3bbe 68bd d43e 5dce 9c3e ab4c 3c3f
00000050: ac6a d23e d73f 20ba 36df 323e f1bf a33d
00000060: 6dd4 8cbd 7ee4 d93e 9c71 6dbe a7f5 b43e
00000070: 1f1d e03e f6de dc3d 1cce 01be 7c01 c33d
00000080: 801e 883d 2b22 a93e 2983 053f ba80 cd3e
00000090: 4149 1b3f 2b81 803b 7eb6 1dbe f8c2 1b3e
000000a0: 39f7 0abe a301 073f e0ec 663c 192f ef3e
000000b0: bd61 873e cdd2 3c3e cedb 403c 7681 3e3e
000000c0: f124 1abe 41fd c43e dd74 df3e 127c c73e
000000d0: 1925 c63e 07fc d2bd 73e4 43be 08b7 45be
000000e0: c75f 4cbe 1eb0 353f 4033 79be 9ecf 4c3f
000000f0: a0da c43e 7f79 5a3e c31b de3d c89a 1b3e
00000100: 0078 48be ce7a 803e a9f2 033f a0eb 023f
00000110: 7c52 423e 8a4c 57be 2870 3cbe 924b 0ebe
00000120: 2d04 4bbe a7c8 1e3f a0b3 983d 638d 3f3f
00000130: a532 3a3e f0d8 053e ec42 673e d84f 1a3d
00000140: 72f9 da3d 5442 623e 9970 8b3e 73cd 213f
00000150: df02 903e 02ad 90be 60e1 53be b2c3 18be
00000160: c710 653d 1788 0c3f 2e03 44be 33db d03e
00000170: c2f3 973e e2b9 2ebe cf6b 52be 96e0 50be
00000180: f4f5 5cbe 0320 ab3e 909e c83e 9ac3 213f
00000190: 0251 d33e eedc 53be e06b 6fbe e017 533e
000001a0: 4aef 71be 166a 0e3f 00a8 7eba 6b84 f13e
000001b0: 3681 a73e 706b 0e3d 20ac 553d b2fc 42be
000001c0: 3cf1 26be d634 b73e 971f 753e 13b2 4b3e
000001d0: eeba ed3e 878c 563b 75c7 06be 91df 49be
000001e0: d0fe aa3d 4335 4b3d 2430 2d3e 7ee8 e03e
000001f0: 0919 a43e 9c54 643e f1d2 64be 783f 733e
00000200: 10c6 8a3c f547 c93e 3eb2 f03e 4751 333f
00000210: 545b 983e babb 7bbe 3400 73be acd3 233e
00000220: 50e5 21be 31e7 053f 8cb1 eebd 311c 303f
00000230: e852 9b3e 9077 8ebd 6251 a23d 2685 53be
00000240: f706 4dbe ceb8 123f 1584 413e 3a94 e23e
00000250: a9cd 493e d5d9 18be 439a f3bd 183d 3dbe
00000260: aec9 673e 39cd 2f3f b097 c4bd b86f 313f
00000270: 32c6 bb3e 32b4 5cbe 1030 3dbe 8c7b 18be
00000280: 7043 73bd 9041 5bbd 888c 4f3e 50f6 1dbd
00000290: 2a11 5abe a02f d2bc a01c 30bd 767f 52be
000002a0: 60ac 323c cc71 e53d 0679 3cbe e8ca a5bd
000002b0: f687 25be 2811 c0bd 7a01 143e da4e 0a3e
000002c0: 3d84 1a3e 3863 173e 0239 153f 6843 ae3e
000002d0: 2977 af3e 05d2 4dbe 2ab0 073e 03d3 42be
000002e0: 3f64 fc3c cf5a c03e 42f2 4b3e 20e6 093f
000002f0: 4669 203f a751 df3d ad06 a53c 7cfd 13be
00000300: 1c7b 3ebe fd91 043f 99fe b03e 0f46 3b3f
00000310: 2095 d83e bc34 153e 02d4 7bbe 0007 c9bd
00000320: a84b 6cbe 128f 083f b094 03be b106 343f
00000330: 1afa 853e 80e3 b7bb 878a 913d 4067 64bd
00000340: e7aa a6bd 77fd fc3e a7bb b43e d5f9 bd3e
00000350: 2dae 123f 15b8 083e d7ae 16be 0491 95bc
00000360: 22e8 463c 6e4e e13e fcbd 2e3e 52da e73e
00000370: 1568 a23e 93da 033e f903 803d 1897 1fbe
00000380: 8c28 6dbe 3edd 49be 8e57 51be dc00 4bbe
00000390: 28f1 c83d f051 d73d 50fa 163e e41f af3d
000003a0: e072 7e3d f4d1 87bd 68ba 7e3d 5c35 803d
000003b0: e02f 55bc 7c54 d93d e015 72bd 5848 493d
000003c0: e74c f13d 6e3a 223d a502 a33e f6f5 d23e
000003d0: 9155 e23e b50d 78be 5eab c53d 7791 083e
000003e0: 5038 853d ac25 f53e 7684 03be 9d4e 1e3f
000003f0: 7d17 033f ba63 80bd 1649 70bd f051 153d

conv2.bias f4 [32]
0.41949645 0.2894082 0.401942 0.44653806 0.19697212 0.3916778 0.2343819 0.29327065
0.19008449 0.23690881 -0.12296909 0.40099606 0.236627 0.44368237 -0.1966294 0.2974644
0.2745825 -0.0029936377 0.19784829 0.5530253 0.15466711 0.25913692 -0.18845955 -0.20628771
0.24376243 0.100830115 0.10581951 -0.003334029 -0.22902891 0.092996866 0.2177537 -0.18171674
00000000: 3dc8 d63e 502d 943e 58cb cd3e a3a0 e43e
00000010: 0fb3 493e fe89 c83e cf01 703e 9227 963e
00000020: 82a5 423e 3998 723e 38d7 fbbd 5b4f cd3e
00000030: 594e 723e 562a e33e 3859 49be 414d 983e
00000040: 1496 8c3e e830 44bb be98 4a3e 1193 0d3f
00000050: 0e61 1e3e 98ad 843e 8afb 40be 163d 53be
00000060: dc9c 793e 0580 ce3d e6b7 d83d ba7f 5abb
00000070: 8e86 6abe 2475 be3d d3fa 5e3e f413 3abe

fc1.weight f4 [16, 32]
-0.0031640301 -0.11564393 0.05126242 -0.22970262 0.12411027 0.11045127 -0.13402914 0.11106178
0.09752833 -0.264984 -0.1710455 0.09899618 0.04839228 -0.12464994 0.029515326 0.10546658
0.035425343 -0.2009131 0.09860607 -0.185915 0.09262884 0.15895194 0.10945846 0.08930518
0.068587564 -0.049028337 -0.09895873 0.045561384 0.0074515343 0.105526365 0.11892058 0.077345625
0.43080005 0.49214482 0.48858267 0.36789763 0.6857772 0.34282497 0.39319032 0.24530019
0.4844062 0.6400749 0.114365056 0.4137726 0.5050514 0.41576916 0.023483902 0.24886228
0.32396466 -0.044060692 0.6417852 0.2401511 0.12603186 0.4349037 -0.16183317 0.13591988
0.4604479 0.49700138 0.45118096 -0.008282597 -0.15871607 0.03453609 0.52562875 -0.1639831
0.005925347 0.08229703 -0.055801388 -0.061458234 0.058449224 0.11122571 -0.154547 0.043587666
0.11599152 -0.19801393 -0.17249188 0.12177299 0.041338533 -0.12024431 0.15881728 -0.16488366
-0.04884292 0.073917985 0.027151838 -0.19757754 -0.06473145 0.121262595 -0.15097281 0.01866299
-0.0042907596 -0.1174601 0.1386583 0.038859874 -0.07362214 0.07265437 -0.024584318 0.105384216
-0.1517709 -0.08206643 0.06468463 0.109542206 0.11721127 -0.024972137 -0.05086787 -0.09493226
-0.084173344 0.11364319 -0.058851518 -0.15080477 0.09060556 -0.040895157 -0.066600025 -0.11258116
0.13297893 -0.11950534 -0.08524468 -0.061344933 -0.072652474 -0.1513067 -0.066692375 -0.13654287
0.095494464 0.026166812 -0.08186768 0.15530968 0.045591727 0.03698815 -0.0073202485 0.01952
0.013911247 0.019036531 0.15235402 -0.13173294 -0.06413488 0.16557814 -0.11230236 -0.08548179
-0.012634739 0.009485334 0.04410562 -0.13137089 -0.13890705 -0.10188935 0.005931139 -0.044482842
0.08704774 0.10088362 0.13015683 -0.044480965 -0.13458586 -0.10219958 -0.044423893 -0.098974705
0.05042921 -0.10330405 0.11932267 0.0927455 0.13154177 0.07697202 0.080079064 0.04223624
-0.08718887 -0.10095806 -0.035293475 -0.0027673692 -0.082379766 0.0019893348 -0.038117215 0.11381383
0.088473454 0.06755206 0.06353694 0.11760439 -0.15280883 -0.012543917 -0.07993531 0.15264411
-0.116309896 0.02792357 -0.15329897 -0.07275555 -0.064932175 0.16973276 -0.12529722 -0.13643193
-0.15724733 -0.044987857 -0.06058523 -0.027237862 0.10858403 -0.055811636 0.04981397 0.101420775
0.0002849549 -0.104298316 -0.07547702 0.10628162 -0.16444238 -0.056573145 -0.12415161 -0.10652483
-0.15362263 -0.069561794 0.1408179 -0.020670578 -0.039916337 -0.091067515 -0.035380483 0.094048366
0.16472869 0.0028866827 0.07432751 0.093377724 0.1689416 -0.13296773 0.10410483 -0.12475869
0.17417778 0.06473859 0.018795177 -0.115467906 0.11579852 -0.0987649 -0.10707552 0.11489634
-0.08201473 -0.10885235 -0.0671173 0.086742364 -0.16915943 -0.0102244755 0.014452383 0.11935815
0.15306167 0.016407683 0.028296426 -0.19541112 -0.10698001 0.07330686 -0.16873482 -0.0035061685
0.066100866 0.12093411 0.1499599 -0.09318111 0.10337529 0.021990076 -0.1756292 -0.06015116
-0.09485578 -0.037236363 0.044088572 0.11072708 -0.04414183 -0.13110888 0.10753937 0.0009134561
00000000: 9e5b 4fbb bad6 ecbd 8bf8 513d 2a37 6bbe
00000010: 862d fe3d 4734 e23d ef3e 09be 5c74 e33d
00000020: efbc c73d fcab 87be 8d26 2fbe 82be ca3d
00000030: fc36 463d 7848 ffbd 20ca f13c ddfe d73d
00000040: 2a1a 113d 2abc 4dbe fbf1 c93d 8060 3ebe
00000050: 30b4 bd3d 4cc4 223e c22b e03d a2e5 b63d
00000060: a377 8c3d f0d1 48bd e0aa cabd 939e 3a3d
00000070: 002c f43b 351e d83d a28c f33d 6267 9e3d
00000080: d391 dc3e 68fa fb3e 8227 fa3e 145d bc3e
00000090: 188f 2f3f c186 af3e 3e50 c93e f92f 7b3e
000000a0: 1704 f83e f3db 233f 3a38 ea3d 01da d33e
000000b0: 0c4b 013f b2df d43e 5061 c03c c1d5 7e3e
000000c0: b2de a53e fc78 34bd 094c 243f 2cea 753e
000000d0: 7f0e 013e b3ab de3e 98b7 25be 952e 0b3e
000000e0: d4bf eb3e f776 fe3e 3101 e73e bbb3 07bc
000000f0: 7786 22be b775 0d3d 9b8f 063f 30eb 27be
00000100: 6a29 c23b 588b a83d ff8f 64bd a1bb 7bbd
00000110: 7468 6f3d 4eca e33d 9241 1ebe fb88 323d
00000120: f68c ed3d 2ac4 4abe b6a1 30be 1e64 f93d
00000130: 9852 293d a642 f6bd ffa0 223e 43d7 28be
00000140: 840f 48bd 5062 973d 886d de3c c451 4abe
00000150: ec91 84bd 8658 f83d 9e98 1abe 20e3 983c
00000160: 8099 8cbb ec8e f0bd 71fc 0d3e 882b 1f3d
00000170: 34c7 96bd d0cb 943d 0d65 c9bc aed3 d73d
00000180: d569 1bbe 7212 a8bd 6079 843d aa57 e03d
00000190: 760c f03d 5e92 ccbc d45a 50bd d86b c2bd
000001a0: 1363 acbd c3bd e83d 4a0e 71bd 916c 1abe
000001b0: 688f b93d ae81 27bd 9865 88bd f490 e6bd
000001c0: a12b 083e 37bf f4bd c394 aebd d344 7bbd
000001d0: d2ca 94bd 25f0 1abe 0396 88bd e5d1 0bbe
000001e0: 9a92 c33d c85b d63c 3eaa a7bd 8009 1f3e
000001f0: 64be 3a3d e380 173d b2de efbb 68e8 9f3c
00000200: 00ec 633c 80f2 9b3c b102 1c3e 00e5 06be
00000210: 2659 83bd 518d 293e c8fe e5bd 1411 afbd
00000220: f001 4fbc 6068 1b3c 18a8 343d 1786 06be
00000230: a63d 0ebe 5dab d0bd 005a c23b a433 36bd
00000240: 1646 b23d 129c ce3d d547 053e ac31 36bd
00000250: e0d0 09be 034e d1bd d4f5 35bd 40b3 cabd
00000260: dc8e 4e3d 1391 d3bd 725f f43d 5af1 bd3d
00000270: e3b2 063e 82a3 9d3d 7e00 a43d e8ff 2c3d
00000280: 1490 b2bd 19c3 cebd e48f 10bd c05c 35bb
00000290: b9b6 a8bd 805f 023b cc20 1cbd 3a17 e93d
000002a0: 9231 b53d bc58 8a3d a81f 823d 92da f03d
000002b0: eb79 1cbe 0085 4dbc 20b5 a3bd bd4e 1c3e
000002c0: e233 eebd f8bf e43c 68fa 1cbe dd00 95bd
000002d0: 29fb 84bd 6dce 2d3e ea4d 00be d0b4 0bbe
000002e0: 7205 21be 3045 38bd 3828 78bd f021 dfbc
000002f0: 4e61 de3d be9a 64bd bc09 4c3d b2b5 cf3d
00000300: 0066 9539 5b9a d5bd b293 9abd 2eaa d93d
00000310: 9563 28be 3eb9 67bd 3343 febd b129 dabd
00000320: 404f 1dbe 6a76 8ebd 9132 103e 5855 a9bc
00000330: 507f 23bd 9b81 babd 20eb 10bd 6e9c c03d
00000340: a3ae 283e 802e 3d3b 0639 983d d23c bf3d
00000350: 07ff 2c3e b128 08be ea34 d53d 7c81 ffbd
00000360: a95b 323e aa95 843d 58f8 993c 707a ecbd
00000370: c627 ed3d 4045 cabd 694a dbbd c64e eb3d
00000380: 57f7 a7bd fbed debd cc74 89bd fba5 b13d
00000390: 2138 2dbe 8f84 27bc b0c9 6c3c 0c72 f43d
000003a0: 33bc 1c3e 6869 863c e8cd e73c da19 48be
000003b0: 5618 dbbd e821 963d d2c8 2cbe bfc7 65bb
000003c0: e45f 873d 4dac f73d 178f 193e bdd5 bebd
000003d0: 6db6 d33d 8824 b43c 24d8 33be 1061 76bd
000003e0: bf43 c2bd 2885 18bd 3896 343d e1c4 e23d
000003f0: 10ce 34bd 6841 06be 9a3d dc3d 0075 6f3a

fc1.bias f4 [16]
0.07026174 0.17526723 0.05799296 0.069644906 -0.16231571 -0.16589735 -0.11040624 0.054323874
0.44679403 -0.10414589 0.02447816 -0.14891623 -0.10888771 0.1457397 -0.18900236 -0.11420906
00000000: 63e5 8f3d 4179 333e 078a 6d3d fda1 8e3d
00000010: 1736 26be ffe0 29be ab1c e2bd b682 5e3d
00000020: 30c2 e43e 714a d5bd 6c86 c83c 7f7d 18be
00000030: 8500 dfbd ca3c 153e d689 41be 71e6 e9bd

fc2.weight f4 [3, 16]
-0.1541692 0.6513687 -0.044536423 -0.21817753 0.10225797 -0.08458823 0.06404632 -0.12989442
0.43925026 -0.19305146 -0.15164213 0.108876586 -0.06340468 0.5858935 -0.16858692 -0.09233391
0.25473186 -0.13780221 0.005580209 -0.017627675 0.24971545 0.07855412 0.053423077 -0.07103391
0.17126983 0.086811185 -0.042320136 -0.027976602 -0.014578308 0.24130593 -0.15736131 -0.21126336
-0.13650659 -0.06624005 0.16242355 -0.012991392 -0.21919575 0.16843313 -0.007684052 -0.1050239
0.17332141 -0.14099449 0.14092231 0.0075862706 -0.05025622 -0.024115864 -0.18802609 -0.09254786
00000000: 88de 1dbe 19c0 263f d36b 36bd ee69 5fbe
00000010: a06c d13d 983c adbd b82a 833d 0b03 05be
00000020: 69e5 e03e 48af 45be 1348 1bbe b0fa de3d
00000030: 50da 81bd 1efd 153f 0da2 2cbe 9019 bdbd
00000040: 376c 823e 061c 0dbe 30da b63b ea67 90bc
00000050: 68b5 7f3e fce0 a03d 28d2 5a3d 3a7a 91bd
00000060: 5c61 2f3e 10ca b13d e157 2dbd 302f e5bc
00000070: dbd9 6ebc e718 773e 5323 21be 6c55 58be
00000080: 62c8 0bbe dda8 87bd 5c52 263e d9d9 54bc
00000090: da74 60be bc79 2c3e 80ca fbbb c516 d7bd
000000a0: 2b7b 313e dc60 10be f04d 103e 4096 f83b
000000b0: 77d9 4dbd a28e c5bc e989 40be bc89 bdbd

fc2.bias f4 [3]
0.20792402 0.993327 0.20003055
00000000: 09ea 543e ae4a 7e3f cfd4 4c3e
